data/weights(1).npz (npz, 5034 bytes, 8 tensors)

input_weights f8 [9, 14]
000000 07 8d 3e 45 05 85 c2 bf 83 15 d4 89 70 21 fa bf
       -0.14468446618148098 -1.6331639655994372
000010 ce de aa fb 95 52 09 c0 4e 1a f8 81 97 35 04 c0
       -3.165325132515 -2.526167884239192
000020 29 9e 57 d2 00 51 fd bf 87 52 a3 85 51 a2 04 c0
       -1.8322761742109697 -2.579257053419784
000030 21 d7 a4 71 e5 83 08 c0 03 48 de a7 bd 73 0f c0
       -3.064402473300007 -3.9315140833577984
000040 ac 84 2d f4 a3 70 06 c0 a8 c9 c4 ca d6 5c c8 bf
       -2.8050002170935695 -0.19033322239699868
000050 44 37 f6 16 c7 89 ff bf d3 e8 5f 91 86 95 10 c0
       -1.971137132353264 -4.146021148184633
000060 98 7f a2 b5 b5 96 de bf 7f 25 31 ab ca 0d f8 3f
       -0.47794859636086917 1.5033671080767304
000070 eb 49 77 5a 44 f7 f9 bf 01 28 f7 4e 87 e9 f2 bf
       -1.6228679212405221 -1.1820138058269551
000080 9a 87 53 7b e4 e4 e7 3f fa 6d 0f 05 15 66 01 40
       0.7466909798351822 2.1748447795232524
000090 3a 45 54 80 1a 99 e2 3f 7f b3 16 88 f8 28 86 bf
       0.5811893946103404 -0.010820333150002302
0000a0 63 61 0f 9e 4b 23 0e 40 fd 1c dd 7a f7 8a d2 bf
       3.7672340725368243 -0.28973185537729745
0000b0 d1 30 4c 6b 71 f2 f1 3f 3e 2d 66 bd cb 0c f0 3f
       1.1216901961625363 1.003123988952964
0000c0 fe 11 7e 34 9d 05 e6 bf 51 5c 79 a1 5d c8 97 3f
       -0.6881853127711677 0.023225272160143643
0000d0 55 d3 7c eb 1a 51 da bf 52 e1 65 c7 53 c3 f5 3f
       -0.41120026585422426 1.3601873196585825
0000e0 02 54 ec 33 a0 91 d7 3f 7e 96 35 16 23 2f c4 3f
       0.3682632929861144 0.15768850883903335
0000f0 fa 3d 60 83 7b b2 e1 3f f2 1d eb 3d 24 65 d9 3f
       0.5530374113022269 0.3967981915161253
000100 2e a4 c9 8b d0 92 f6 3f 5e 29 fa 02 3a fa ed 3f
       1.4108434162574315 0.9367952402256312
000110 1f de 65 fb 02 56 ec 3f cd 99 3e c9 fe 93 fe 3f
       0.8854994688144336 1.9111316548456785
000120 89 76 6c 6e 19 e2 f6 3f c3 d5 3f cf 56 b5 c0 bf
       1.4302000344681878 -0.13053403014752804
000130 c9 01 1b f7 c6 67 b9 bf b4 0d 30 da 08 20 e5 3f
       -0.09923976452683471 0.6601604711035436
000140 6f 1a fd d7 15 74 e3 bf ba 2e dc 78 44 41 02 40
       -0.6079205721405979 2.2818688814348578
000150 a3 ef ad db 78 00 ff bf e7 4d 41 46 f7 ce ff bf
       -1.9376152592876472 -1.988028788026776
000160 b8 32 98 e0 ab 5d f1 bf 88 4f 0d 19 57 c4 d9 bf
       -1.0853689931129065 -0.40260865637287013
000170 b9 5a 35 ff 49 5c ec bf 4b 8b 02 84 f4 46 e6 bf
       -0.8862657532252661 -0.6961615160292721
000180 ca c1 61 2c fa f8 fc bf 73 f7 ae e7 61 45 01 c0
       -1.810785458914426 -2.158878145243699
000190 73 77 4e c1 31 a7 e7 bf 63 39 3b d4 61 5a f5 bf
       -0.7391594672696854 -1.3345659532820597
0001a0 f4 05 1d ab 79 b7 d4 bf 6e fa dd e4 4c 67 f8 bf
       -0.32369844160356753 -1.5252198162194435
0001b0 db fb 8b e5 07 43 0e c0 3d 20 7a fc f5 3d 00 40
       -3.7827299054474515 2.030254337765682
0001c0 17 a8 a1 5f c1 9a e2 bf dc f0 db 4b 38 af f5 bf
       -0.581391035824029 -1.3552782977340518
0001d0 15 92 02 a5 3a 0d 00 c0 9c 83 5f f6 bf 1d 11 c0
       -2.006459511891317 -4.27905259092304
0001e0 a5 9a 8e 78 85 77 0d c0 17 4d e0 5c 8b 72 f7 bf
       -3.6833600443381607 -1.465464937970699
0001f0 ef 18 36 5b 23 a5 13 c0 e2 ad f1 38 67 18 fd bf
       -4.9112676860588484 -1.8184578155877422
000200 6f ad 4c c0 65 f5 11 c0 14 76 da e5 36 cc 08 c0
       -4.489645962409994 -3.0997140843671875
000210 9b a4 cf e8 6d 63 f3 bf 57 5f 0e 2f c0 41 d6 bf
       -1.2117747396644407 -0.34776310534788507
000220 4e 60 a8 f5 aa f3 eb bf c3 77 cf 89 1e 9d f3 bf
       -0.8734946058275541 -1.2258592017383172
000230 26 fc 26 9d 39 16 03 c0 a7 da cf 98 70 e4 f1 bf
       -2.3858520772478355 -1.1182714432922383
000240 b3 b3 2d f9 75 12 d5 bf c9 1f 23 84 0b 48 07 40
       -0.3292517598518387 2.9101782153338474
000250 5c d4 1a fb 59 09 00 40 7e 49 a9 16 aa d3 fe bf
       2.004566156154892 -1.9266758809286268
000260 84 bc e3 54 d5 a9 10 40 b4 01 33 89 e4 f4 ec bf
       4.165852857971121 -0.904894130675578
000270 f9 7f 62 77 f1 15 0b 40 4c b9 98 56 e2 d7 f2 3f
       3.385714466756323 1.1777060873678975
000280 84 a6 55 c9 50 cd f5 3f 03 c4 3d 2f 40 fd df bf
       1.3626258721000406 -0.4998321973171757
000290 70 f1 f7 be 85 8e e3 bf e9 04 fd e6 6a 5a f5 bf
       -0.611147759423643 -1.3345746062262214
0002a0 4a 0b ba 07 80 17 f0 bf a2 32 88 f3 ec 5c f6 bf
       -1.00573733347183 -1.397686911866153
0002b0 d6 93 d3 4a e0 d2 e0 bf 8d 35 89 b6 d2 4e e7 bf
       -0.5257417165236073 -0.728371960177968
0002c0 d0 48 82 fc 90 e6 f9 3f 87 c6 34 42 d2 b1 f2 bf
       1.6187906135206056 -1.1684134088685896
0002d0 b5 58 f1 eb ea f3 f1 bf 0a 3e d8 ae 1b 5b f4 bf
       -1.1220502106203132 -1.272243197428795
0002e0 83 27 92 eb 67 cb 01 c0 df 34 85 32 38 1c e0 bf
       -2.224319305799271 -0.5034447657323219
0002f0 ba 63 f2 00 de a8 f0 3f 20 2c 96 f0 cd 34 fc bf
       1.0412273442254745 -1.7628917119898304
000300 eb 85 a6 b4 d6 7e f6 bf 8d 3a 0b 4a a7 95 d0 bf
       -1.405966478029195 -0.2591341231426803
000310 9f 44 9c 1d 03 f9 04 c0 8a 99 35 cd d6 72 e1 bf
       -2.6215879739107346 -0.5452684410091007
000320 13 97 cd 3a ed 7d dc bf b4 fd 6a 25 ea e4 f5 bf
       -0.44518595449913895 -1.3683873616827045
000330 7a a2 da bb 8a c5 f9 bf 43 53 0a f3 34 e9 f3 bf
       -1.6107280099915031 -1.2444352620852477
000340 64 e2 a2 ee 73 30 e0 3f 22 6c 14 d1 d4 ed f0 3f
       0.5059146557678784 1.0580642859629354
000350 ea 8e eb 82 ac 52 ed bf d3 9b c3 9c fd 80 ff bf
       -0.9163420254739922 -1.9689918635938184
000360 9a 17 bb ed 98 63 ed bf a3 c2 21 b5 5d 84 d8 3f
       -0.9184078829937221 0.3830789822450617
000370 4a 56 9e 5d e0 31 c4 3f f4 b0 c4 7d d4 6d eb 3f
       0.15777210780349754 0.8571569878017997
000380 18 0b 96 f8 2b ac f3 bf b6 c5 f9 f5 f7 fe 07 c0
       -1.2295341215510174 -2.999496385273882
000390 73 2d 11 cc 05 30 01 c0 f4 03 b5 77 1f d1 ef 3f
       -2.148448557161538 0.9942777002362377
0003a0 61 2d d5 a4 8f e8 f7 bf 0d 09 3f a8 7e 89 e2 bf
       -1.4942776144769925 -0.5792840276774612
0003b0 db 33 f7 cf 85 72 f6 3f d9 49 7f 82 56 8a f7 bf
       1.4029596446664445 -1.4712739083812407
0003c0 77 92 92 e6 cb 63 00 40 46 91 ff 90 11 2b e4 bf
       2.0487287534218086 -0.630257399749589
0003d0 a4 e1 af 45 48 e6 e9 bf fb 8d 27 89 c7 ef 04 c0
       -0.8093606339526116 -2.617079803008662
0003e0 02 16 30 f2 eb 2d f8 bf ab 23 c9 80 24 78 f1 bf
       -1.5112113438093506 -1.0918316870395113

input_biases f8 [14]
000000 be c4 47 45 e1 8c ff bf 8b 88 c5 42 ad 1d ea bf
       -1.9718945223105915 -0.8161226562626934
000010 ed 8a 9f 60 a6 70 c5 3f 7c 1b 2d 42 0e b9 f5 3f
       0.16750030248575545 1.3576796135909879
000020 23 e3 32 05 02 62 e3 bf 74 cd 62 47 ac 04 eb bf
       -0.6057138539827956 -0.8443204302078997
000030 57 02 12 f2 b5 63 f4 3f 9b a7 1d 5d ee e7 85 3f
       1.2743434387085892 0.010696279732389338
000040 1e 00 07 0c 05 26 fb 3f df c6 8d 8a fc e0 fc bf
       1.6967821569269357 -1.8049283420809201
000050 43 6f 79 22 d2 20 01 c0 e0 66 98 7e f4 6f e1 3f
       -2.1410258000668434 0.5449163887562598
000060 99 de ae 70 06 8b fb bf e7 be 0d c1 3a 21 ce 3f
       -1.7214416886980983 0.2353890841145507

hidden1_weights f8 [14, 14]
000000 b7 ca bc 6d ab 13 e8 bf 5d c8 ee 25 32 8e f8 3f
       -0.7524010794935155 1.5347157937763065
000010 1a fd 0e 2c 39 83 f5 3f b0 65 34 dc d5 86 ef bf
       1.3445369454419223 -0.98520939835287
000020 43 2e 2c f0 36 e9 f6 3f bc a4 b7 bf 11 40 f5 3f
       1.4319371587506715 1.3281419266661905
000030 ca 85 5f a0 3f 51 00 40 96 00 f0 2c 0c 12 a1 3f
       2.0396721390868366 0.03334081696084572
000040 e5 2f 05 64 9a 4a a2 bf df c3 19 3e df d4 e8 3f
       -0.0357254263968512 0.7759853566077445
000050 00 d6 14 f3 37 2f e6 bf 96 c5 7a b9 53 00 f0 3f
       -0.6932639835055738 1.000079845933532
000060 aa e2 22 da 3d 4c e5 3f fb 23 f3 93 83 bd e9 bf
       0.6655568371271177 -0.8043840303081419
000070 67 2f a1 3e 79 4a 07 c0 12 71 c0 b9 e9 4f c2 3f
       -2.911364068311673 0.14306375093372786
000080 48 cb 30 ed 85 b3 f0 3f d7 b9 b7 52 33 a9 de bf
       1.04382889416293 -0.47907717779062636
000090 99 c4 e4 ba 09 b1 f3 bf 83 71 a8 de 05 98 e1 3f
       -1.2307221699268551 0.5498074864186012
0000a0 46 61 3f 67 dc 0b d1 bf e1 a0 00 73 a2 db f8 3f
       -0.26634893496295253 1.553621720531787
0000b0 6a b4 55 22 6d 6b f0 bf aa 9f 4f 4d ee a3 df 3f
       -1.0262271252825266 0.4943805460920837
0000c0 68 b1 34 c8 df 58 f0 3f bb 3b 45 f9 cf aa eb 3f
       1.0216977901974023 0.8646011227191289
0000d0 88 d3 2f 48 19 51 f2 3f db 0f ab 84 bf 22 00 c0
       1.1447995013997758 -2.0169668545440635
0000e0 47 f6 a2 a3 cf 40 e3 3f bf 67 4d e5 28 5c f1 3f
       0.6016615100886121 1.0849999386905294
0000f0 65 e3 0f 25 1e bd e9 3f 64 c7 45 2a 9e fd f9 bf
       0.8043356632107189 -1.624418416144601
000100 33 7d 11 8c 4c 37 f6 bf 65 a8 f7 d2 05 aa b5 3f
       -1.388500735418188 0.0846255912835275
000110 e4 85 cb 11 91 4d ea bf 2b 88 08 d3 ee dc e6 bf
       -0.8219685885962318 -0.7144693490738566
000120 1e 1f a7 47 3e 87 ed bf c9 33 43 81 03 2b c2 3f
       -0.9227591895550835 0.14193767367978996
000130 4e 4b e6 8d fa e8 e5 3f e3 a1 87 7b 5b 5a d2 bf
       0.6846897860981274 -0.2867649751993026
000140 89 6d de 44 a4 ad d0 3f 79 33 60 08 80 ab d4 3f
       0.2605982468173456 0.32296753709743303
000150 42 3d d0 3f f0 b9 db 3f ef d7 68 94 55 85 dd 3f
       0.4332237837961267 0.4612630795776331
000160 43 f8 d6 9c a2 ea 93 bf d2 6b 91 6c c7 4c f0 3f
       -0.019449749777543223 1.0187448731364737
000170 26 ec 9d d6 a8 99 fb bf d9 62 fb 8b ec 4a f4 3f
       -1.7250145324203543 1.268291994862173
000180 f0 73 d8 f5 13 d8 d1 bf cf 44 41 9d 8d fa d8 bf
       -0.2788133526644847 -0.390292552537244
000190 67 6d 22 aa 4a be f0 3f 76 43 56 ec 75 b2 e8 bf
       1.0464579244497487 -0.7717847457844147
0001a0 31 be 06 fe 78 60 f8 3f a5 3b 00 15 c1 55 05 40
       1.5235528872398272 2.666872181005106
0001b0 f5 42 f5 c0 75 f2 e0 3f b1 42 db a0 aa be f6 bf
       0.5295971649848911 -1.4215494426208972
0001c0 7c fd 1d 9c 26 15 e6 bf eb 98 19 75 b6 6e d0 3f
       -0.6900818871653622 0.2567573684267603
0001d0 48 76 78 bf 1a 35 de bf 7d 1e 6b 89 9d be b4 bf
       -0.4719912404851567 -0.08103355984632717
0001e0 51 80 40 61 fa 34 02 c0 3a 56 e3 2c de 2a 06 40
       -2.275868186741754 2.770931578338403
0001f0 6d e4 66 99 c9 96 d5 3f 69 ce 15 8a b3 83 cd 3f
       0.3373283384385733 0.23058170549812765
000200 31 23 db b4 49 c3 e0 3f 08 eb 8d 43 b9 94 00 40
       0.5238388569206106 2.0726189878163304
000210 d3 47 aa c9 1a 2c bc 3f 35 38 10 b1 f3 d4 f2 3f
       0.1100479833933428 1.1769902149712952
000220 90 c9 cb 4d b1 c2 e5 bf 36 a0 9d 05 33 b1 f3 3f
       -0.6800161857084266 1.2307615489353458
000230 e6 ea 96 b2 74 d0 d3 3f 9d fa ff 3d 5b 6d db 3f
       0.309598135379629 0.4285495858638713
000240 89 b1 3d 8e 70 8a e4 3f f3 ea 49 5d aa c9 e0 bf
       0.6418993738312092 -0.524617368893216
000250 24 f8 23 5f 30 ef f1 bf 8c e1 1d b0 6c d4 d6 3f
       -1.120895740168188 0.3567153663530227
000260 00 51 f3 45 78 33 f1 bf 09 9c 7d 88 b3 de ef 3f
       -1.075065873378719 0.9959352174599881
000270 ac 0a df 03 1b 24 f5 3f bf 56 bc 37 34 b1 e2 3f
       1.3213148261280976 0.5841313446605553
000280 b2 26 6f e1 21 1e d8 3f 60 b3 ab d6 28 79 f1 3f
       0.3768391324525552 1.092079962308354
000290 4d 4e ed c9 0d 31 f0 bf a9 7b 80 17 af 42 e2 bf
       -1.011976040627718 -0.5706401309033612
0002a0 75 7b e5 27 24 95 13 40 89 b7 17 6f 24 de 10 40
       4.895645736104474 4.216935859510962
0002b0 7e 45 6e e0 2a ae f0 3f a8 e6 b2 da ad 20 0f 40
       1.0425213591409768 3.890956600746751
0002c0 ed 46 95 f7 70 8a ee 3f b2 de 43 81 11 e2 f3 bf
       0.9543995700462041 -1.2426924752634645
0002d0 57 74 40 b6 a0 35 b1 bf 3b 6a 77 03 de d3 da bf
       -0.06722454499727469 -0.4191813501217074
0002e0 08 25 f9 f5 6e 77 d0 bf ab 26 6e c1 e8 64 e0 3f
       -0.2572896387178649 0.5123180177626713
0002f0 e5 9f 33 11 e3 0d 03 40 a0 f5 d5 b4 71 81 0c 40
       2.381780752551992 3.5632051589770555
000300 5b 61 3e 68 e1 da f6 3f 63 6d c4 e2 f2 e9 dd 3f
       1.4284376213091352 0.46740409989589277
000310 e7 f9 c5 b0 40 69 ea 3f 87 8a e6 06 1d 25 ec bf
       0.8253482296566376 -0.8795304426933662
000320 ea 69 1f 15 dc dc c6 bf b8 42 f9 60 04 77 dd bf
       -0.17861510306722944 -0.4603892275818384
000330 3b f5 96 c0 54 da f5 3f aa 44 73 cb 6a f7 e2 bf
       1.3658034823450425 -0.5927022908819215
000340 1a 91 62 90 ad 66 7f bf b6 6f 69 03 58 07 e4 3f
       -0.007666280731573738 0.6258964602125079
000350 8a 81 98 a9 0b f2 ff bf db 63 83 48 27 cf f0 bf
       -1.9965931534607955 -1.0505745728062184
000360 a1 8f b5 7f 54 6f e1 bf 94 00 48 e7 aa 89 e3 bf
       -0.5448400968857535 -0.6105551259243094
000370 20 7f 08 57 7a 00 f0 bf e1 4d 08 ee 3c 60 d8 bf
       -1.000116672490499 -0.3808739017997294
000380 e5 ec 09 b2 9f f1 f5 3f 40 81 f6 84 d2 43 00 40
       1.3714901880874149 2.0331163776137657
000390 f2 d6 ef 1e fd ac ff bf 30 ac 56 46 45 7d f8 3f
       -1.9797335823508857 1.5305836436844054
0003a0 6e 85 40 c4 62 c1 e0 bf 29 71 d4 dd 0b 98 c5 bf
       -0.5236066659019067 -0.16870258647475936
0003b0 80 bc 86 0b 86 ff d4 bf 78 a0 9f 5d 79 ce c8 3f
       -0.32809592366806584 0.19380108901464488
0003c0 1e 5f df c4 de 4b f1 bf 4f 66 bd ba 73 df e2 bf
       -1.0810229959806246 -0.5897768637907549
0003d0 0b 1a 7c 05 02 15 c1 bf 03 e6 2d 74 da 2c f2 3f
       -0.13345361011325027 1.135950521302562
0003e0 5b ee 18 ea 9a 51 08 40 77 94 ed b6 86 de ae bf
       3.0398462571009026 -0.06029149039276487
0003f0 d6 0b d3 72 19 27 e6 bf ca 38 db 71 c5 b1 f1 3f
       -0.6922728769935655 1.1059011886132333
000400 a9 e8 b8 21 1b ac e5 3f 21 e3 f8 b0 56 48 e4 bf
       0.6772590311659502 -0.6338304001320446
000410 68 a0 e3 33 34 fc f3 bf ae 94 70 8d c0 9a ca bf
       -1.2490732218666611 -0.2078476610778685
000420 96 e4 78 cf 4e 5c c0 3f 90 b0 52 77 1d 26 ef bf
       0.12781701212387436 -0.9734027224090074
000430 57 40 94 28 5c 23 c1 3f 88 f8 7b 10 a8 76 c2 bf
       0.13389160138513276 -0.14424610905547675
000440 e9 96 a3 60 49 8a f9 bf f1 9a 56 64 ed 73 fa 3f
       -1.5962613844835067 1.6533025664772902
000450 20 e3 87 67 3f 19 dd 3f 4d 38 43 76 92 2f f6 bf
       0.45466599569731336 -1.3866142863876292
000460 03 84 09 6c 7d 7f f4 bf 71 e4 06 68 83 71 f3 bf
       -1.2811254711343742 -1.2152132094909371
000470 1d 8e 0a 86 ad ca 01 c0 42 a6 60 9b df 09 f4 bf
       -2.2239637824984713 -1.2524105138239894
000480 ff 35 86 bd d4 62 fb bf 72 aa 8e 09 7d 90 0d c0
       -1.7116286662379705 -3.6955509897864482
000490 fe c9 8c 83 eb c7 f9 bf 43 6e 3e 87 4c 64 04 c0
       -1.6113085879011346 -2.548974091141447
0004a0 bd 90 31 b3 ae 5f f6 bf b9 c5 46 5c 27 42 fd 3f
       -1.3983599662542894 1.8286508183049206
0004b0 23 41 70 9c 89 21 ee bf b4 6e 03 22 01 9e f5 bf
       -0.9415939383925757 -1.351075299134135
0004c0 42 c0 c5 df 02 f1 f8 3f db e4 9d d3 dc 53 0b c0
       1.5588406315910253 -3.415948537117044
0004d0 90 b4 b9 8e 98 c3 ec bf b4 91 0c a8 90 f4 e8 3f
       -0.8988764560323421 0.7798541338166189
0004e0 4f 85 7d 92 d4 5b e6 3f 75 d9 de bc df 71 e3 bf
       0.6987097607745144 -0.6076506317975104
0004f0 30 78 0d 7e be 5a f8 3f 5d 39 f2 c2 2d d4 e0 bf
       1.5221543239527016 -0.5259007270376902
000500 11 fd d4 88 5d d5 fb 3f 73 39 ec b6 01 09 e5 bf
       1.7395911545752976 -0.6573494503698342
000510 c7 d1 01 11 a3 cc b4 bf a5 59 22 c0 88 ff fb bf
       -0.0812475124856241 -1.7498862748376294
000520 0a df 38 71 36 94 06 40 cc 65 e9 0b 26 c2 ee 3f
       2.8223694653969504 0.9611997826242997
000530 41 60 45 8b e8 23 f2 3f 52 cd e7 ff f5 52 cf 3f
       1.1337666931413113 0.24471926684746365
000540 61 f6 05 40 e1 2d c7 bf aa 56 7d 06 76 2a e2 bf
       -0.1810876429189419 -0.5676832319974967
000550 33 9a b6 1e 0d 32 e1 bf c9 2f 05 72 9c fb c3 3f
       -0.537359771716018 0.15611606185336616
000560 38 54 92 6a 4e 14 f9 bf b1 08 63 65 a3 07 f3 3f
       -1.5674575961068182 1.189364810984028
000570 f1 17 48 99 7e ad ed 3f e6 55 70 a6 82 27 ce 3f
       0.9274285310536908 0.23558076025862745
000580 a4 d4 67 08 76 f4 bb bf f9 3b c7 b1 58 20 cc bf
       -0.10919892983641205 -0.21973713570193334
000590 89 77 88 8a e0 98 f0 bf 83 30 11 39 d1 2e c5 bf
       -1.0373235141227914 -0.165491249909227
0005a0 6a b8 79 5a e5 ad cc bf c0 f4 61 f0 33 6a ec bf
       -0.22405688207385605 -0.8879642195676283
0005b0 48 e1 12 cc c6 38 ee bf 55 6b 49 00 46 e4 ed bf
       -0.9444307313743048 -0.9341154103852697
0005c0 db b8 53 c2 76 1b f3 bf 92 59 cb 28 ac cb ee bf
       -1.1942050543689706 -0.962362365414082
0005d0 02 33 2a 97 dc 65 f2 bf 32 c1 94 dd ee f5 f1 bf
       -1.1498685746075243 -1.122542253066126
0005e0 e7 33 82 bf 74 fe f1 bf d6 df 5a 02 94 98 f3 bf
       -1.1246230583958494 -1.2247505275718047
0005f0 f8 fb 71 fd 6a e2 f2 bf ee 8a 6c 8b c4 c8 f6 bf
       -1.1802778148846738 -1.4240155645608712
000600 65 74 9f 66 61 ca 11 40 9b 77 96 f2 60 fa f0 bf
       4.4476371798346905 -1.0611276126942133
000610 2b 7a 45 e7 aa 7f e8 bf e9 5e 4b 26 7f 57 f3 bf
       -0.7655844227809373 -1.2088614936710036

hidden1_biases f8 [14]
000000 77 27 34 82 14 6d 9b 3f 94 e0 a1 32 77 59 b3 bf
       0.026783295104031404 -0.07558388696804946
000010 96 89 4a 72 cf 81 d7 3f d9 c3 52 86 99 08 c4 3f
       0.3672979942440632 0.15651244219546248
000020 87 29 ec 86 d4 a5 be 3f 8b 1c 91 b8 b0 20 f7 bf
       0.11971786779409942 -1.4454810342447526
000030 cf 1d eb 06 35 b2 f0 bf 64 fd 43 52 61 4c e8 bf
       -1.0435076017619058 -0.7593237501859389
000040 fb 4c 80 55 d5 c8 f0 bf b3 c1 06 29 ec 20 e3 bf
       -1.0490315761460909 -0.5977688599869481
000050 cd eb e2 66 7c 86 ed bf fd f1 9c 57 5c 5e e3 3f
       -0.9226667413234907 0.6052686415856098
000060 21 36 b9 5d 9a f3 de bf 82 f8 7f 07 fd d9 e2 bf
       -0.4836183467167264 -0.5891099115831511

hidden2_weights f8 [14, 1]
000000 1e 89 ec 83 b1 10 f0 3f ac 05 57 99 24 ce b0 bf
       1.0040755418090792 -0.06564549201632158
000010 b0 2d 43 59 a1 d1 f5 3f 55 b9 8d d4 97 77 c2 bf
       1.3636792647183533 -0.14427469137758445
000020 bc e7 fb d7 b0 2b f6 bf 41 d9 6b 68 03 e1 e2 bf
       -1.385666698157805 -0.5899674453237723
000030 10 15 8c a3 3f 0a f2 bf f2 39 57 33 01 0d f2 3f
       -1.1275020969927176 1.128174973058432
000040 11 86 59 e5 35 e9 dc 3f 8a f7 ad 1b 18 4e fd bf
       0.4517340411894973 -1.831565960047984
000050 40 12 1e cf 58 db 09 40 cf d0 b2 71 ff 8c fb bf
       3.2321029835750608 -1.7219232980105976
000060 7c c8 84 32 2c 3e ee 3f 2a 73 6d cb 4e 97 f1 3f
       0.9450894343083429 1.0994403787983154

hidden2_biases f8 [1]
000000 e2 e1 ee 5f 27 48 e6 bf
       -0.696307837838557

output_weights f8 [1, 1]
000000 1c 50 65 fe a9 85 a6 3f
       0.0439885256807033

output_biases f8 [1]
000000 36 c2 75 1c d7 d9 f0 bf
       -1.0531836616247694
