data/weights(1).npz (npz, 3970 bytes, 8 tensors)

input_weights f8 [7, 11]
00000000: ff32 eabe 38d2 d7bf cd98 0ea2 70e7 f4bf
00000010: b3d7 7765 e746 e7bf 95c4 2f87 e05e 803f
00000020: 3a32 7e76 27d2 e5bf 4c76 1f5e ab7c f6bf
00000030: 40b1 db10 5742 00c0 e98f 0fdb 0878 debf
00000040: ad3b 1fab 1278 d13f cdf9 5888 342d b2bf
00000050: 3f7a 3dce 4fe4 fbbf 75d8 c069 c821 d63f
00000060: 2590 7608 f09f de3f a2b1 3e61 eb5a e33f
00000070: 3a25 ef1d 330a 00c0 a440 835b 2111 f2bf
00000080: 9130 d136 9643 f73f 1187 9d7e 9c4a f2bf
00000090: b66d 5d50 21bf dabf 25ca b96a 92f6 d1bf
000000a0: c01e fc5c 257d f03f b3a0 b553 3fd4 df3f
000000b0: fb8a 605e 13b2 e73f 19fc 61e3 036a d0bf
000000c0: f415 886f ad48 ebbf 2953 89e3 08c6 eabf
000000d0: 325a 679c 864a f7bf 6ff1 01c8 be17 b5bf
000000e0: a0b6 0bb5 0a38 fd3f f443 cf8f eb02 c13f
000000f0: 067d 259f 8090 ce3f 74f4 879c f9ad fb3f
00000100: 876b 4e53 4679 e3bf 372b ab0d 436e d4bf
00000110: 99f0 4c98 22c5 d43f 5e2d fd37 14ad eabf
00000120: 587f 108c a7ec d23f 7d83 65bd 205e d5bf
00000130: b5ea bd17 9903 f1bf 1a41 8c5d 9b38 cbbf
00000140: d3fd 9ac5 0e57 f5bf 7eda 54ed 957a f9bf
00000150: 43e4 729a e80e ea3f 4bee 5bc6 559e e33f
00000160: bfc4 b28b 45be e4bf bbb3 6d56 307b fbbf
00000170: 51a0 703b fc37 ca3f cb24 dc7f d983 d9bf
00000180: 93be d444 7256 e6bf bdbf b212 656e c2bf
00000190: bdab faed 7930 e1bf 1655 e443 f119 c23f
000001a0: 6883 2e6c 28e3 e6bf 9053 cb8e 9015 febf
000001b0: 8154 ba93 c410 bf3f 28e3 861d badf f3bf
000001c0: 5f76 7d8a 1525 e13f 992e 7d30 c51b edbf
000001d0: c5b7 20fb f0ff cebf aafe 9d90 e496 a03f
000001e0: 6ff1 f0b8 beaa 5c3f 334c 6eb7 4ccf d83f
000001f0: 07fe 79cc 3e96 ef3f 76ec d043 6d16 f5bf
00000200: e1ed 2d1c a257 ecbf a762 c327 b75c c83f
00000210: 9c85 602e b804 fbbf e8a6 993d e37c d3bf
00000220: 4940 c292 7ea6 febf 89f6 f913 04e9 f8bf
00000230: ef4e 7063 fc5b e8bf 49fc 9e0d f468 eebf
00000240: bdad 7c41 32c3 fbbf 0dad f19b b721 00c0
00000250: 752c 45e6 5311 fdbf 46aa 850d 07c9 c23f
00000260: 467c 9496 f35d f3bf
-0.3722059120562306 -1.3065038996078784 -0.7274052602576745 0.007993463635985779 -0.6819035829844957 -1.4054368664432273 -2.032392627434234 -0.4760763301148914
0.2729536696542095 -0.07100227669523136 -1.7432401710754133 0.3458119423625086 0.4785118181846449 0.6048485659899152 -2.0049803103071584 -1.1291822027888339
1.454000677232248 -1.1432156511222653 -0.41791565750255744 -0.28067455694614046 1.030553210470245 0.49732955145601493 0.7404877513220919 -0.2564706535849282
-0.8526217630721349 -0.8366741603918842 -1.4556947812576593 -0.0823935735988408 1.8261820861911602 0.13290161630587216 0.23878486414739813 1.7299743761534758
-0.6085540415837024 -0.31922985396220177 0.3245321738538763 -0.833627805093254 0.29569424322288773 -0.3338701104713023 -1.0633784224907405 -0.21266500537650118
-1.3337543219530417 -1.592428137851726 0.8143198982790029 0.6130780100060716 -0.6482265213473041 -1.7175753952135284 0.20483353521672368 -0.3986724613792602
-0.6980525345188248 -0.1439939824390403 -0.5371675155669134 0.14141670050654714 -0.7152292359279331 -1.8802648141765737 0.12134960753094683 -1.2421208527941392
0.5357768731007119 -0.9096399256754523 -0.24218570959186372 0.032401220944845946 0.0017496931575485505 0.3876525679890534 0.9870904916460298 -1.317975296885178
-0.8856974172953721 0.1903294510036819 -1.6886522113421512 -0.30449753776211574 -1.9156480534329765 -1.556888654740222 -0.7612287466203876 -0.9503116861377602
-1.735155349549003 -2.016463487923494 -1.8167304034166396 0.14675987396488405 -1.210437381938179

input_biases f8 [11]
00000000: 0ef8 c85c 5b3e 983f f62b 5157 d0fd d6bf
00000010: 416a 52f6 a9dc cd3f 78d3 2d80 73ca dabf
00000020: aa86 5945 8901 e4bf 03ec 3ea2 23d8 d4bf
00000030: b2e5 f81b 4d85 ba3f 7503 e6af 056a c6bf
00000040: ad0b 46f5 1945 e13f 62ce f39f 90b9 8c3f
00000050: 43e2 dca3 6550 e4bf
0.023675372636937246 -0.3592415669160681 0.23329662826002287 -0.41860663907510043 -0.6251875261770767 -0.32569208950343426 0.10359651501575831 -0.17511054123681516
0.5396852293491655 0.014025812035902866 -0.6348140907712793

hidden1_weights f8 [11, 11]
00000000: 6286 6beb dbf5 e1bf f3c2 7df9 ecac d93f
00000010: fe54 bed5 a21d d7bf 135d 7c01 74cf a53f
00000020: 174a 376b 03ca b53f 46ca 9117 c36e d93f
00000030: 4e15 55c2 1b8b e23f b496 41cb 3c9a fe3f
00000040: 179e 542a 7ac1 d03f 6d98 58c8 1188 d23f
00000050: d948 cb39 9fb9 c23f cd1b c1b2 2de4 d13f
00000060: 1156 22b3 d114 dabf cff7 d418 c4ee f1bf
00000070: 04d8 ea05 4da4 e4bf 88ab abda 8a13 02c0
00000080: 1d08 b6eb 667a ef3f dd45 ccb1 350e f7bf
00000090: e7d2 a7a3 fac8 d33f 00f9 e525 47e5 eebf
000000a0: e3cc 8028 6eff edbf 2911 3401 1ae4 ec3f
000000b0: 6b5c 48ea 7ed1 f33f b48c 31da 8c8e f73f
000000c0: e505 494b 9457 0040 99bb 1377 5514 ecbf
000000d0: aa03 25fa 2ac6 bdbf a303 0e0f ee49 e13f
000000e0: b02c 03c9 7955 ebbf b7a7 0e44 b7bf d33f
000000f0: e71a 748a f0f5 f23f 63ba 78d6 6b20 e4bf
00000100: 8732 67cd 59d1 f13f 3bbb 6cc6 0328 fb3f
00000110: 9277 4463 c305 d53f 6094 8b99 2492 d33f
00000120: b16c 200a 5ac9 e23f 7713 1ef7 2ccd c83f
00000130: e20f c839 74ba ef3f e439 90d5 cc4b b4bf
00000140: 637f ed97 0e22 fdbf 27ac 2070 41d3 f4bf
00000150: 0f76 469a 94ae eebf a577 4bd5 967c d93f
00000160: b4e4 f677 218e a53f 363f ac04 6d7d e8bf
00000170: 8899 aab8 59db fa3f 956c 6d4d 0120 f43f
00000180: 86be 524c d612 d5bf a0b0 9cf2 4f07 f33f
00000190: c6bb a74b 2942 e4bf 7862 8c11 0b2f f8bf
000001a0: 962d 9802 3ad1 d9bf 39ab 3ce8 bddd fabf
000001b0: 3bf0 e834 5409 f8bf 8aa4 241a d9bc b23f
000001c0: 484b 94b1 0158 c4bf 426f 0c06 cab7 b33f
000001d0: ae6c c719 d0f7 02c0 9666 8e2e d0b7 f33f
000001e0: 58a6 a6f4 957a d7bf 3858 94cd 5f79 f0bf
000001f0: dfb6 96f2 f994 ebbf 3c04 c770 9a40 d2bf
00000200: 715a dc9c a69f 8ebf 87de 8ccd bebb d8bf
00000210: 6665 099c 7a46 a73f 472d a244 3ebd dc3f
00000220: a8ab 5ef2 9a4e d8bf 7827 9375 b26c e23f
00000230: b00a 4ce3 fb24 f43f 47fe 6404 6721 d9bf
00000240: 866f a0cc a69b c93f 99b0 6a8c e0eb ec3f
00000250: 2602 9ff3 575a 843f 73e0 3e3f d40d cd3f
00000260: 92c9 6abc 23e3 e13f a51e 29d6 bd67 d73f
00000270: e40a 48bb 678d d63f 4e94 3c05 a9ff e2bf
00000280: e60b f290 c490 ebbf 7666 9cd2 c28b e0bf
00000290: 6e28 25e4 b838 ec3f ed99 6a9f 4329 debf
000002a0: ba0e d100 393e fcbf bf7a 334d 5b57 e7bf
000002b0: cd89 2664 3cff e2bf 7b02 5e49 b68a c73f
000002c0: fd5f 9a14 5a5c 903f 4407 4418 f41a c4bf
000002d0: ca7a 7147 ee34 e63f 0b4d 195a 7db2 e13f
000002e0: 990d 721e 4fd6 ed3f 5810 eecc 33d3 dfbf
000002f0: e9d7 ef3e 7bcb ac3f e1c4 077a b6a4 d2bf
00000300: 6add e6d0 5c10 f53f ac2f 191e 1075 d43f
00000310: 3861 9e6e 43f8 dc3f 2e32 445c 11f3 f3bf
00000320: aadb a3e6 8e86 dc3f 8a62 6cf4 04ea 03c0
00000330: 1e03 9fad 1131 e2bf 436c d988 6c9f dbbf
00000340: 3c70 4e87 fd88 f43f 3506 a009 efcb f0bf
00000350: 4a0a 370c 18d1 edbf 76ff 36d6 c6c0 f0bf
00000360: b056 df0b 958f f03f 54fe dec0 33c2 0240
00000370: 179c 2d58 a9ab e7bf 7704 4c20 ea07 ed3f
00000380: 5837 69f2 d9ef f1bf 4dfb c208 1fc7 c3bf
00000390: f2ab eba3 7054 e93f d92e 46b0 381a e2bf
000003a0: d6d5 d12d dc24 fbbf f4fa 2ec3 d7db ddbf
000003b0: b05c ba53 bc09 b13f 89f7 9a5a fb4a e9bf
000003c0: da70 ff3d 12c8 f63f
-0.5612620924041034 0.4011795460165068 -0.36118384240519663 0.04259836691033505 0.08511372916772363 0.3973853807612254 0.5794810100129923 1.912655633897356
0.26180891164628534 0.2895550209526679 0.1462897331426294 0.27955191093900283 -0.40752069943968744 -1.120792481422075 -0.645056258733121 -2.259542187084154
0.9836916545612017 -1.4409691758377143 0.3091417883108946 -0.9654880275918742 -0.9374304572178541 0.902844431257596 1.2386464263597883 1.4723022959886238
2.0427633172664508 -0.8774821592067951 -0.1163050518707808 0.5402746480977964 -0.8541840482734155 0.30857640882697573 1.18504385074055 -0.628957671060402
1.1136110328253908 1.697269225212678 0.32847675985419145 0.30579485888148916 0.5870790670191096 0.1937614637974112 0.991510498861768 -0.07928161825132168
-1.8208146986653098 -1.3015760784135268 -0.9588110936344395 0.3982293208081223 0.0420999964657737 -0.765310773016586 1.678552361825128 1.2578137421140003
-0.32927472546996517 1.189285228446387 -0.6330763318672943 -1.511485165165281 -0.40339517835010363 -1.6791361877209978 -1.5022775713723735 0.07319409263858936
-0.15893574877608274 0.0770231499449752 -2.3710023893341576 1.2323762720683695 -0.3668570412797627 -1.0296323805282679 -0.8619355905591098 -0.28519307149332795
-0.014952947294245096 -0.38645906518238643 0.04545958666558185 0.44905049040308537 -0.3797976843731541 0.5757686897643302 1.2590292815008688 -0.39266372136259914
0.20006260863817377 0.9037935965075291 0.00993794166777302 0.22698453033604302 0.5589770011923056 0.3657068816578238 0.35238068856430815 -0.5937085249212346
-0.8614218550650292 -0.5170606721396342 0.8819241004905629 -0.47126856391915234 -1.7651910812282225 -0.7294136531671355 -0.59365672646191 0.18392065603622484
0.015977294452198965 -0.1570725553975142 0.693961276567131 0.5530382880919275 0.9324107737196982 -0.4972657681721606 0.05623994010231554 -0.29130327145601426
1.316494766257018 0.3196449560098198 0.4526527958164652 -1.246842728057469 0.44571278117603674 -2.489267262990613 -0.5684898749387661 -0.431605466501143
1.2834449086576702 -1.049788510892893 -0.9317741621565088 -1.047064625527097 1.0350542510763425 2.344825274281712 -0.7397047731618639 0.907216132240264
-1.1210574597530094 -0.15451419761481092 0.7915576173376151 -0.5657008593420542 -1.6964990415411783 -0.46654314099207217 0.066554804269219 -0.7904030580173053
1.4238455220975568

hidden1_biases f8 [11]
00000000: 8f26 f69e dd41 e0bf c4d2 bdf2 ec4f e1bf
00000010: 8d48 e072 3df9 e3bf 70ec 81f2 3fbc e6bf
00000020: 3976 cde4 8328 edbf cdb7 a252 0e71 babf
00000030: e721 c54b 8639 d9bf c369 fe68 3da2 e8bf
00000040: 328c 2460 9ce5 e1bf bdfe 94a7 99d4 dabf
00000050: 9f5a 61d7 3601 cdbf
-0.5080402474133779 -0.5410065403981084 -0.6241748088525739 -0.7104797111964114 -0.91119570434575 -0.10328759686919327 -0.3941360225622063 -0.7698046732578451
-0.5592786672390331 -0.4192260872405134 -0.2265995551740234

hidden2_weights f8 [11, 1]
00000000: d736 9446 23a6 efbf 485d 4448 65a2 f0bf
00000010: 5a71 8be3 c86d 02c0 9c96 328e 16b7 f23f
00000020: c4ec 3f8d b426 d8bf 3f2c 72e9 0fe7 f53f
00000030: f90a 8f44 4f55 b43f 8677 b3fd 12a5 fe3f
00000040: a6f7 3ef9 5fb7 f4bf e188 6a9c 67ee f53f
00000050: 56da 5ef3 d3ab ef3f
-0.9890304926390979 -1.0396473715716912 -2.303605821316677 1.1696992449373402 -0.3773623828307786 1.368911659143819 0.07942672179983025 1.9153013143727278
-1.2947692619486388 1.37070427990016 0.9897250893907976

hidden2_biases f8 [1]
00000000: 55e1 b9d3 024f d6bf
-0.3485724513661997

output_weights f8 [1, 1]
00000000: 8b8d cfba f6c3 d43f
0.3244606804202809

output_biases f8 [1]
00000000: eb32 cad7 394f d7bf
-0.36421056817270764
