data/weights(no_device).npz (npz, 3970 bytes, 8 tensors)

input_weights f8 [7, 11]
0	0x3fe7481365a412c3	0.7275483117269562
1	0xc010a39e964021d2	-4.159784648575128
2	0xbfc7bc561e918dec	-0.18543507092100187
3	0xbfe87e08235b08ea	-0.7653847399272113
4	0xc00fa457219b6723	-3.9552443147230334
5	0xbfefda2a09de1704	-0.9953813736653676
6	0xbfcb85c40de3c59f	-0.21501970937928847
7	0xbf926c87f0356ea0	-0.017992137943436348
8	0xc00332a0e946f1e7	-2.3997209763312983
9	0xbfb3ea1ef35f5ef4	-0.07779115144455401
10	0xbfd5303fa7e19fc3	-0.33106986422216894
11	0x4000b177fa59321a	2.0866546209783907
12	0x40050b497152e4bb	2.6305111745283205
13	0x3ff133ce7ec98039	1.0751481011029809
14	0x3fa72993a2612f8c	0.04523908002064933
15	0x4003126bccfe1679	2.3839946761170805
16	0xbfe2cf7938590a24	-0.5878263569396194
17	0x3fe195b7aa195cf7	0.5495260545966677
18	0xbff534995b4bfba1	-1.3253415647775244
19	0x3fee8e7012b64d88	0.9548874249907593
20	0xbfd5c2579d08dfff	-0.33998670897881306
21	0xbfcf050b3488f103	-0.24234142365629205
22	0x3ffa7200257990b2	1.6528321708547478
23	0x3ffeca3ba7cc8326	1.9243732981341934
24	0x3ff6513f55758348	1.3948357904666455
25	0x3feb0443bf28751f	0.8442705853991902
26	0x3ff3aea280d275a7	1.230135443889006
27	0x3ff070d86a423a00	1.0275501394968387
28	0xbfdc75f8fbb016b7	-0.4447004754914405
29	0x3ff5fcd45d508647	1.3742259640788619
30	0x3ff6c0d85d3f4265	1.4220813410248863
31	0xbfd4c85511f7c7ba	-0.32472731356312645
32	0xbfed4b0897aa61a9	-0.9154093706338716
33	0x3fe228d6187d380f	0.567484901266427
34	0xbfea4ac0b3abdf4e	-0.8216250905233922
35	0xc00ace9960fa71e5	-3.3508784843854635
36	0xc000afba61e21ffd	-2.0858047148831234
37	0x3fdc31f29ef4df63	0.4405485679922007
38	0xbffac6c61c688dda	-1.6735287770942393
39	0xbffc4fc656352e54	-1.769476258038499
40	0xc00736dd64a08d12	-2.901789461278562
41	0xbff607f711f2f66b	-1.3769446087966581
42	0xc0052ce8f8175978	-2.64692872830636
43	0xbffde0954b38ba11	-1.8673298776954008
44	0xbffaa7b8e08d552c	-1.6659477969709071
45	0xbfe759a95d3442e0	-0.7296950168984857
46	0xc0092e35823061cb	-3.1475629969611183
47	0xbff9a6cc70168164	-1.6032223108705574
48	0xbffa6c29f02fd84a	-1.651407182912879
49	0xc011a6e6eeed13e1	-4.4129903156471935
50	0xc0036dd19ef1fc36	-2.4286224763486883
51	0xc00ecbb4ad242fe3	-3.8494657065075315
52	0xc0021ad9a76c185f	-2.2631104545462644
53	0xbff7f9ec9b869e18	-1.4985166621426114
54	0xbfe822bdff8b6b58	-0.7542409888368224
55	0xbff186ed422aa456	-1.0954411110526698
56	0x3fcf17f577ed9b32	0.24291866641871135
57	0x3fdc009f62eaaa90	0.43753800067740034
58	0x3fe206fbdd1905a7	0.5633525198283466
59	0x3fb0280b8f8bff77	0.06311104063570193
60	0x3ff7fe4be06b1205	1.4995840803468365
61	0xbffb0d9adb2958be	-1.6908215104099749
62	0xbfe0206da5024f35	-0.5039585326034969
63	0x3ffa13cf64f78ef1	1.6298364585899743
64	0x3ff9bb7dca2dfcf8	1.6082742593424069
65	0xc008e64c61fd846a	-3.1124503760807345
66	0xbfd7ca062b4b5f6b	-0.3717055723950497
67	0xbff1466bfcd5f1ee	-1.0796928287883207
68	0xbfe83d4fe1a1395d	-0.7574843794662162
69	0xc0001363998b8ca7	-2.0094673152649025
70	0x3fda1b7eb8df8b68	0.4079281621363209
71	0xbfe8d6ea0337a42b	-0.7762346327627986
72	0xbfd05ca5e69cdff2	-0.25565478821545107
73	0xbfdb3ee529d3d2fd	-0.42571381649695167
74	0xbffc1da75d352ab1	-1.7572396889615158
75	0xbff41768055bf7f3	-1.2557144364686763
76	0xbff6a4ac0a42775c	-1.415203132702536

input_biases f8 [11]
0	0x3fc70724bce6ebf0	0.17990550254566484
1	0xbfe1bef810c15687	-0.5545616461992758
2	0xbfe96805dcb152c0	-0.7939481077579202
3	0xbfeb338f3f99fad6	-0.8500438921181181
4	0xbfec3665ff6f7929	-0.8816404332135664
5	0xbfd283aeebecb327	-0.2892873100234276
6	0xbff68cdb8cdee57c	-1.4093890669595046
7	0xbfd63a3f308f8530	-0.34730510465859066
8	0xbfb92133c13a7e22	-0.09816287486545908
9	0xc0011016fa540bdd	-2.1328563267611416
10	0xbfc985d1069254da	-0.1993962556922842

hidden1_weights f8 [11, 11]
0	0x4000ce04d3ef04a3	2.10059514592338
1	0x40076387dd3ecc8a	2.9235989842214325
2	0xbfffc14c86d27941	-1.9846921221247416
3	0xbfffdb1a7a8c40c9	-1.9909920489335937
4	0x4000e076c9e7510a	2.1096015714375698
5	0xc0006f208c5c00a5	-2.0542612996651592
6	0x40068b61f57abf95	2.8180579355320767
7	0xbffc35e71400df3c	-1.7631598264105852
8	0x400c119311a72cd0	3.508581293024328
9	0x40069f14766570ad	2.8276757478434633
10	0x3ffbd956701e68e0	1.7405609492912433
11	0x3fddb679abdd97d1	0.4642624071478823
12	0x3fe14b20faa807f4	0.5404209991104367
13	0x3ffdbffb4b1e161d	1.8593705114630048
14	0xbfedce04abfb49ef	-0.93139871206432
15	0x3ff3e9b6a4b07013	1.2445589478657026
16	0x3fe44db352933dff	0.6344849217220484
17	0x4003d91a2e92aa3f	2.4810069693096746
18	0x3fd1dd947f47a6a7	0.2791491740195888
19	0x3fe810b069719734	0.7520372447440651
20	0x3ff44b99fb07c0bf	1.2684573942060948
21	0x3f9b73bd48343175	0.026808698207831456
22	0x3ff386bccf87590e	1.2203949076261469
23	0xbfb558af5f65fee0	-0.0833844764620113
24	0x3fdc604d850db12d	0.4433778571463048
25	0xbfbbef66a7ac1e87	-0.10912171929896362
26	0x4001bb3628b4d50a	2.216411893862305
27	0x3fd532ad8c882736	0.33121813510716736
28	0x3fbaf8d54109d76b	0.10535939061977977
29	0x3fd4ac45b0abc3b8	0.32301466229460685
30	0x3ff16f11f25fe67c	1.0896167247541646
31	0x3fe5eb20d79152b3	0.6849521837526339
32	0xbfc5090b2a46dc32	-0.16433848919197797
33	0x3fda5d849594c986	0.4119578800920397
34	0xbfd34b14a17f4a65	-0.30145755549634706
35	0x3fea0e020aeb35dd	0.8142099583871488
36	0x3fd72cb78c9bed6f	0.3621043084273969
37	0x3fda7502c2d83a7e	0.4133917715816223
38	0xbff830d788cc8b14	-1.5119242995940043
39	0xbfea3f946f038844	-0.8202612083662264
40	0xbfe8be22662d6fae	-0.7732097621587763
41	0x3fe49449405702a7	0.6431013352049221
42	0x3fe9901055d42a31	0.7988359142630711
43	0x4000ab305b46be45	2.0835883265461086
44	0x3ff202fb33f71fbc	1.1257278470893501
45	0x3ff0311a72ca448b	1.0119881137837037
46	0x3fe1c061e6a3d9b1	0.5547341828048983
47	0x3ff0824a361da279	1.0318090547463312
48	0x3ffa8b05fc3f5920	1.658941254941574
49	0xbff9538d5a564c14	-1.5828984764855294
50	0x3faa3309174dd06c	0.05117062005493342
51	0x3ff538e736df4ba6	1.3263923781821432
52	0x3ffbbd7f823e05f0	1.7337641799534786
53	0x3ffb06c89b7c5967	1.689156157842797
54	0x3fe7c8cdda13ece3	0.7432622203190501
55	0x3fe0db2f672901b5	0.5267560019347487
56	0xbff62d83a467139d	-1.3861118719080203
57	0x3ff0f1a973a56969	1.0589994923999149
58	0x3ff650585ffd3453	1.394615530927031
59	0x3fffcd5a3a342930	1.9876348756393547
60	0x3ff859e3ae4937fc	1.5219456489608083
61	0x3ff94d18e16deea7	1.5813225560986355
62	0x3fdea96047dde890	0.4790878965210448
63	0xbf88bf96d996aef8	-0.012084177508618663
64	0x3fe6788c383f0f58	0.7022152994690982
65	0x3ff0a26eb6bcd606	1.039656366175565
66	0xbfd4c15909b49584	-0.32430101344865414
67	0x3ff6fa4dad51e5d2	1.4361092348393538
68	0xbf9bfa968a919a05	-0.027323105056348513
69	0x3ffed11d3fa3ec72	1.9260532842588671
70	0x3fe7a3f026b56acf	0.7387619739559684
71	0xbfd41ddac135b429	-0.31432217472212415
72	0x3fe5d395f1ae74e3	0.682078334840892
73	0x3ffc1b1d9717dc6c	1.7566200162962344
74	0xbfeb61220e826401	-0.8556070598016278
75	0x3fdb4822fb650984	0.42627787161122677
76	0x3fd82f029a605c6d	0.3778692729551441
77	0xbfd3e179cf4bcd20	-0.31063695186385765
78	0xbfa06d9508a4fc37	-0.03208604555629118
79	0x3ffa264a64812016	1.6343482900574648
80	0xbfd715f2f0d8f117	-0.36071465988404
81	0xbff3aa9d25df96b4	-1.2291537742070604
82	0xbffa7f0e3fbe127c	-1.656019448274633
83	0xc004888c438a7374	-2.566673782026948
84	0xbffe48605d6d7be0	-1.892670025779573
85	0x3fc1842c79236162	0.13684612193061257
86	0xbfc5dbc4258572df	-0.17076923210233638
87	0xbfe7de70e646d17e	-0.7459034440603742
88	0x3fe3bff06dc19598	0.6171800750423015
89	0x4001d65c8bd122dc	2.2296687052915853
90	0xbfffcd2378db00b0	-1.9875826569478185
91	0x3ffed584b08e3dc1	1.9271284958557404
92	0x3fd2735c66caec5a	0.28829107321116043
93	0xbfdf681f0059cbab	-0.49073004755262656
94	0x4000b421b6fb033d	2.087954930815981
95	0xbff0ef7153664e04	-1.0584576852605787
96	0x3ff0188f9ea7b07b	1.0059963414633148
97	0x40025f1d99fd803d	2.296443179177031
98	0x40023072985e4652	2.273656072976146
99	0xbffc4753a25dbc3d	-1.7674137442043183
100	0xbfff15ba060e1acb	-1.9428043591048432
101	0xbfee513f91663c8e	-0.9474180068808822
102	0xbffdc2eeeaf6de8f	-1.8600911310476567
103	0xbfff0b56c0b934e7	-1.9402682808170597
104	0xbff2709aaf5b10cd	-1.152491269095708
105	0xbffe36139eb90abf	-1.888202304850594
106	0xbfec1ea867d8f772	-0.8787424114486682
107	0xbffee821c0e69546	-1.9316728148636044
108	0xbffbe3aac4c8e1ff	-1.743082779588917
109	0xbffb61206a3cb24e	-1.711212553967147
110	0xbfae41e0518fb8a7	-0.05909634585974404
111	0x3fdc405a64679677	0.44142780118122665
112	0x3fe359795e7ab873	0.6046721310901958
113	0xbff8b6889a802078	-1.544563869016228
114	0xbfe840c266328d95	-0.7579051967663185
115	0x3fe3a11c71baaa1f	0.6134168835899948
116	0xc0019f2d75308938	-2.2027234225689902
117	0xbff13582876f53d5	-1.075563935320351
118	0xbff222ec0f476ddb	-1.133525905307457
119	0x40076abf1bce9f74	2.92712232326806
120	0x3ffb5438f7ad56b8	1.7080621409308332

hidden1_biases f8 [11]
0	0x3ff01b18b08918de	1.0066153427047122
1	0x3ff48488cf99cbcb	1.2823570355801504
2	0xbff129ab67854743	-1.0726732295774617
3	0x3fd12f7ed6caae9c	0.26852389312510083
4	0x3ff1b600fc120cab	1.1069345327858098
5	0xbfdb72cc6c1177fd	-0.42888174584902555
6	0x3fe79ec464a6cbad	0.7381307569361205
7	0xbff8842bf134ec69	-1.5322684690607054
8	0x3ff1894e623f541d	1.0960220182216809
9	0x3fe72352c5f14618	0.723061930281065
10	0x3ff17fef01a17a3c	1.093733793611718

hidden2_weights f8 [11, 1]
0	0x3ff517f312351f3e	1.3183470450621395
1	0x3ffe49237ff699a5	1.892856120926447
2	0x3feb6459c7b9833b	0.8559998417732467
3	0x3ff91bb5de0149c3	1.5692652389594606
4	0x3ff23f87b4eab2e5	1.1405102793752857
5	0xc003484fd5d97369	-2.410308523844311
6	0x3fd8d191fdabde8b	0.387791154600088
7	0xbfe43db3532b7b9e	-0.6325317978297453
8	0x3fe298f1e0df7f5f	0.581170024113799
9	0x3ff0cc14264720bd	1.0498239035824064
10	0x3ff0d0d039e5f1c7	1.0509798299454916

hidden2_biases f8 [1]
0	0xc0025bbb46a0b50f	-2.2947907941621746

output_weights f8 [1, 1]
0	0x3fb20230bce80364	0.07034592258425004

output_biases f8 [1]
0	0xbfeec216a3ddad00	-0.9611924362665434
