data/weights(2).npz (npz, 3970 bytes, 8 tensors)

input_weights f8 [7, 11]
0.4564692754693924 0.004030303645959328 -0.5536934961375913 1.4804884476195652 0.5350290220632786 -0.20634135594730277 0.1738813181638091 0.40913699558672145
-0.5393409555026016 -1.9171353740286248 -0.17357909842523767 1.0464904897726897 2.015767270569631 1.1361584864968197 -1.9175590437198817 -0.9147387511384155
0.9142733619442289 -1.971117653129911 -0.6188418879995669 0.9994257959029357 -1.9002571492197318 1.2097127980563211 0.169731571014271 1.4298131650335741
0.5028650483857192 0.6860112164708649 0.23329957806505167 1.292289506649471 2.1684147682028314 -0.7308302418467705 0.12209049074816175 -3.1477941016459683
1.0336180197166749 0.5852609938330969 -0.246146442395245 0.1950022494933329 -1.1293727519456596 0.3874573595089544 -0.46832679452913595 0.5345640867410102
-0.8037315811529642 0.9594353798765046 -0.72004906527809 -1.2470256727371325 -2.7443111778950424 -2.871936016026377 -1.86136404557815 -0.2944985763673605
-1.5692432570480912 -1.5968608983907835 -0.4925475911855361 -0.5936317035187912 -1.723315400846463 -0.46124878225719934 -1.736506029623464 -0.7007791766661127
-1.312385233052149 0.9159835327459251 -0.8167100358435907 0.504302507811978 0.3778761452172647 -2.2766610416797515 -0.8402319997786801 -0.06844576211783654
-1.086380975461346 0.832628479014204 -0.09084424179190535 0.336037236555217 -1.5209234119702626 -1.8173703639254843 -2.053536205362627 -1.2334667608691883
-0.6581472491254682 -1.482545731804757 -0.2975063491424695 -0.18861116334183997 0.3332105874919353
00000000: 5045 71e8 ca36 dd3f 6234 a365 1482 703f
00000010: 4767 3d6c dbb7 e1bf 061c 8aa7 14b0 f73f
00000020: 4d86 052f f51e e13f 1d90 cdbf 6469 cabf
00000030: 2b10 7337 be41 c63f 0c3c e8ef 4c2f da3f
00000040: b8dd a8f6 4742 e1bf 9f52 5724 96ac febf
00000050: 38b6 8003 d737 c6bf 2d61 d2cf 6cbe f03f
00000060: cc8c 3b97 4a20 0040 283a 6985 b42d f23f
00000070: 98d0 4e64 52ae febf 82bf 9033 8a45 edbf
00000080: 20f1 a435 ba41 ed3f 0a2e 0caa b289 ffbf
00000090: 0f4c cb80 8dcd e3bf f5d1 85ce 4bfb ef3f
000000a0: 1939 5e0a 7467 febf d845 93ce fb5a f33f
000000b0: 7e70 4d9d c3b9 c53f ea59 f3c4 83e0 f63f
000000c0: a7c7 2371 7817 e03f 30cf 6dcb cdf3 e53f
000000d0: 25e1 fab4 c2dc cd3f 1060 00c3 37ad f43f
000000e0: b4c1 8cd7 e958 0140 da1b 751a f662 e7bf
000000f0: 647b ea88 5241 bf3f 9ae3 88ac ae2e 09c0
00000100: 97d4 730c b389 f03f 4b67 8443 75ba e23f
00000110: 35a2 0e04 ba81 cfbf b432 1c6e d5f5 c83f
00000120: 209a a929 e911 f2bf cdde ebf3 19cc d83f
00000130: 2ef6 95f2 10f9 ddbf 5e66 c524 261b e13f
00000140: 2a0f fa4a 2bb8 e9bf d13c 66d3 b1b3 ee3f
00000150: 0050 5c56 a40a e7bf a8da 1a31 d1f3 f3bf
00000160: 00da 386b 59f4 05c0 754d 0897 b9f9 06c0
00000170: a355 5baa 25c8 fdbf 09d9 8d8e 10d9 d2bf
00000180: 57d7 47d1 9e1b f9bf f097 6d03 be8c f9bf
00000190: 9f63 f754 e685 dfbf 5a6c 0fea 07ff e2bf
000001a0: 5042 752b b392 fbbf e853 c79c 1985 ddbf
000001b0: 24a2 e88b bac8 fbbf d8f5 af73 c86c e6bf
000001c0: a865 7ba8 87ff f4bf 762f 9ab2 bc4f ed3f
000001d0: 376c c815 7d22 eabf befb 4a03 3f23 e03f
000001e0: 8363 696d 1f2f d83f 0fbc 7010 9a36 02c0
000001f0: 7d44 0338 2ee3 eabf 248d d855 a985 b1bf
00000200: 22a6 8904 d161 f1bf 00b2 e27a e4a4 ea3f
00000210: c3b1 8677 9141 b7bf 3a8b 4f53 a281 d53f
00000220: d220 a2c9 b355 f8bf 2279 5cf2 f213 fdbf
00000230: b379 d963 a46d 00c0 f12d 6aa4 47bc f3bf
00000240: af47 ded1 8a0f e5bf 27d0 8edf 81b8 f7bf
00000250: 39d5 fa11 580a d3bf 125b 1b1d 6924 c8bf
00000260: 1f5d fd7f 5253 d53f

input_biases f8 [11]
0.4718790948604824 0.35143813071570623 0.5425030842999179 -0.747799720856037 -0.04624726248153756 0.18340151631473414 0.009452609954954689 -0.6225304472808529
-0.1099054509298192 -0.7736546953061172 -0.6923428781437206
00000000: eee0 0560 4433 de3f f971 7f5b f67d d63f
00000010: 4e83 a16d 2f5c e13f 821b 21ae f9ed e7bf
00000020: c284 c69f b8ad a7bf 65e6 4d6d b379 c73f
00000030: 4a6e f2d4 e35b 833f 8bbc faf8 c4eb e3bf
00000040: 014d 657d c322 bcbf 6092 d77d c7c1 e8bf
00000050: 8add 6740 ac27 e6bf

hidden1_weights f8 [11, 11]
-1.3964894219908235 1.1083581627334127 0.9139055470551556 -0.5235931838119185 0.9498403032257313 -0.22477311876236125 0.8172257568807011 -0.10384135931661884
1.826029722576362 0.19274390304729483 0.4752040712063597 0.8990993082523099 0.6485282181167874 0.96670155590257 1.2489684896742284 1.250975218365974
1.5768078841847095 -0.4866273575328282 1.8727745882626539 1.4205877114259855 1.041185769569644 0.6467017392014912 0.9755459803364399 1.4193825348182458
0.030701739494138507 -1.1193103467905263 -0.5706045906850644 0.5102751848272497 -0.05549994921056866 -1.4752674853382362 0.027370934008701293 0.16517709578619266
-0.19329077513566084 -1.3242375820575796 -0.491846711279718 -0.16894945185782462 -0.06718422604620096 -0.62673521849024 -1.165475267070265 0.17325962159068728
-0.5000384735448646 0.6607696545071079 -0.4632032374424368 1.7019037825018377 -2.096239933841446 0.5051788690737451 -0.9705265902977587 -0.24392146142278898
2.2219480510423675 1.3340376301185053 1.8144690150432328 0.4241043412305704 0.943321753615193 1.2087826331030274 -0.6374283147866315 -0.7156925364832334
1.9653696895536212 -1.3728648195231254 -0.4476066714136188 1.5013708132174972 1.9477247083307574 -0.4117470976111851 -1.1651003309101877 -0.38487320788916884
0.49181146178864144 0.24363881863592618 -0.030595715462812933 0.7495796527125992 -0.13558445571337605 -1.3724466937000988 0.9249501564532425 0.15575621230950795
2.2132263936774477 -1.0348068315349255 1.0966246588662456 -0.5102299847142147 -0.7078977546406031 -0.8753540621632561 -0.6339895897100284 0.18094643090591717
1.291996224842793 0.11676551275088579 1.5138532147372377 1.2106826043874288 -0.4407894007546278 -2.3324104453522456 -1.6115515514361447 -0.04088355591774889
0.12771723196624038 1.3016923493176389 -2.0128925346980395 -0.15675107019698062 -0.35064295691490077 1.204613653867848 0.29209780935396623 -1.1635209080470506
-0.04314549899676688 2.5549559317385717 0.9083588179670812 -0.4029694286158925 -1.2663520346833599 0.16633382576959946 1.1392014947148297 -0.10142880333431445
0.29307692960754433 0.4440792812312024 -0.3429256855163872 -0.26237165089790776 0.907184104154155 -0.7917194752505206 0.5836243021426798 0.15593437694461348
0.6473107121858079 1.4400092716839228 -0.13965271300741713 0.8427089223045652 -1.0928341970968403 -0.012079399447007456 -0.3106709521698933 0.610366324174236
-0.8911525380707936
00000000: 8891 ca4a 0558 f6bf 4d1d d3c4 d5bb f13f
00000010: 2884 87d8 b63e ed3f c02e 1c7e 46c1 e0bf
00000020: 25df d87d 1765 ee3f 9358 0d95 5dc5 ccbf
00000030: f20b 68a1 b626 ea3f 26b0 3cea 5895 babf
00000040: b2d4 3ff1 6a37 fd3f 20b7 0b0c d5ab c83f
00000050: c178 3056 be69 de3f bb98 99e9 6bc5 ec3f
00000060: 3f08 eb3f bec0 e43f da00 f319 38ef ee3f
00000070: 4a2a 0e62 c6fb f33f 25d0 2f97 fe03 f43f
00000080: 5e5f 6ae7 9a3a f93f 3950 7c12 e724 dfbf
00000090: 2ee3 957c e2f6 fd3f 16c9 1a2e baba f63f
000000a0: a0cb d568 b2a8 f03f 0f60 84d8 c7b1 e43f
000000b0: b041 2934 ac37 ef3f 5aed f875 cab5 f63f
000000c0: 0e05 3bdc 4670 9f3f bba2 58f7 b1e8 f1bf
000000d0: fd12 fe8e 6442 e2bf 7963 d99f 2c54 e03f
000000e0: cffe 9345 7d6a acbf 0114 2614 b29a f7bf
000000f0: 65a0 b649 2007 9c3f 3098 39e8 8524 c53f
00000100: 64bf e98a c0bd c8bf 8a24 31bf 1330 f5bf
00000110: d8db e5a0 6a7a dfbf a407 34b9 22a0 c5bf
00000120: dded ac45 fc32 b1bf 0758 5504 370e e4bf
00000130: 87d1 c564 c9a5 f2bf e383 390c 5f2d c63f
00000140: 18be 53af 5000 e0bf 0d83 0967 0625 e53f
00000150: 97dc 0d31 1fa5 ddbf a28b ec75 ff3a fb3f
00000160: 8158 4371 19c5 00c0 fea9 29e0 6c2a e03f
00000170: c045 a7c7 8d0e efbf 5a3c cd85 d138 cfbf
00000180: 6f1a 25b3 8cc6 0140 90e0 8fd7 3758 f53f
00000190: ce74 73a9 1008 fd3f ba52 eb88 8624 db3f
000001a0: 743e 2c1a b12f ee3f 8167 5275 2c57 f33f
000001b0: fab1 b110 d065 e4bf 0efa c508 f4e6 e6bf
000001c0: 6ceb d27c 2772 ff3f 6be4 da19 41f7 f5bf
000001d0: a758 cc73 96a5 dcbf 5b02 df66 9d05 f83f
000001e0: 9344 3e62 e129 ff3f 22a1 9d7f 105a dabf
000001f0: ab16 9d3e 40a4 f2bf d165 3f3c c3a1 d8bf
00000200: e287 0bc8 d679 df3f 88e7 098b 8e2f cf3f
00000210: 83f4 3db5 7b54 9fbf 8fb9 c477 8efc e73f
00000220: bf44 91d9 d45a c1bf c21f 0faa 8af5 f5bf
00000230: 42b2 0c12 3199 ed3f 5f53 02cf d1ef c33f
00000240: c6e8 1b0a b0b4 0140 0eeb b19b 918e f0bf
00000250: 3915 5d4c c68b f13f fe27 39d5 cd53 e0bf
00000260: aefb 2231 19a7 e6bf 942e ad85 e602 ecbf
00000270: 93e3 3989 a449 e4bf aecf 88ad 4029 c73f
00000280: 8a15 c43b 04ac f43f 62d3 903a 58e4 bd3f
00000290: bbda 0326 be38 f83f bee1 fab8 f45e f33f
000002a0: 3888 2abf e435 dcbf f117 bdce c6a8 02c0
000002b0: e6c7 9347 eac8 f9bf 58ca 387f b0ee a4bf
000002c0: 7b1f 37cb 0959 c03f d85c 5c5b bbd3 f43f
000002d0: 0020 b766 671a 00c0 c3f4 0d48 6b10 c4bf
000002e0: 506c 2128 ef70 d6bf ecd6 7af7 1846 f33f
000002f0: 5225 9a02 bbb1 d23f 8e63 8419 c89d f2bf
00000300: 2e49 52b6 2a17 a6bf 974e 4cbc 8c70 0440
00000310: 6675 0683 4611 ed3f 2d5b 4c49 40ca d9bf
00000320: 6902 e359 fa42 f4bf 2912 f342 6d4a c53f
00000330: 13ac b558 2b3a f23f de7b 31f1 3cf7 b9bf
00000340: 8718 f8bc c5c1 d23f 6307 6e81 cb6b dc3f
00000350: b514 1093 7ef2 d5bf 3d42 0077 b2ca d0bf
00000360: 8361 59f5 a607 ed3f 22d5 b914 c455 e9bf
00000370: f550 5bdf 0cad e23f de4d a65c a8f5 c33f
00000380: 4e08 66f4 c4b6 e43f 8e1b 7d29 470a f73f
00000390: 550f 95dd 23e0 c1bf 700e abb3 78f7 ea3f
000003a0: 99b3 07b6 3f7c f1bf 1449 a48c 15bd 88bf
000003b0: 83c2 d86a 08e2 d3bf f90e 1df5 1e88 e33f
000003c0: d45d d853 5284 ecbf

hidden1_biases f8 [11]
-0.720128867795748 -0.07968084107156168 -0.9935419452865459 -0.369579599479758 -0.12748308858177054 -0.3882813912297035 -0.3223623795635321 -0.5907595402034362
-0.4563831760862105 -0.27149471626639043 -0.6994760059008257
00000000: e8d2 02b2 4b0b e7bf 4e27 85ae f665 b4bf
00000010: ccb7 467a 18cb efbf 9d32 4231 31a7 d7bf
00000020: 2e3a 20a8 5d51 c0bf 7a86 3e31 9ad9 d8bf
00000030: 36e9 6bd1 95a1 d4bf 0229 1f8d 80e7 e2bf
00000040: 5408 efc7 6135 ddbf 1aa9 d95f 2b60 d1bf
00000050: b3c8 3581 1b62 e6bf

hidden2_weights f8 [11, 1]
0.10671376512308099 1.8634815379391572 0.6045404879705949 0.4927737357964838 1.0195503467839806 1.5274075336893012 1.0208194858862796 0.3635966979911945
0.8269475121020002 -0.830331919253925 -1.8245356611371268
00000000: a395 3ce3 9751 bb3f 1b60 6204 d2d0 fd3f
00000010: 7a21 1e4b 6558 e33f 8fb6 e4d9 9a89 df3f
00000020: a300 4106 1450 f03f c9c0 cde1 4270 f83f
00000030: 8604 30d0 4655 f03f b991 b315 2b45 d73f
00000040: ae92 ffa0 5a76 ea3f 1ba8 c03e 1492 eabf
00000050: e283 2f4e 4c31 fdbf

hidden2_biases f8 [1]
-0.877709789373846
00000000: c3ab 17d7 3216 ecbf

output_weights f8 [1, 1]
0.11758997926763702
00000000: a7b4 4a7b 601a be3f

output_biases f8 [1]
-0.3135200337815808
00000000: a2e4 ee54 b610 d4bf
